model_cnn.pth (torch, 436009 bytes, 8 tensors)

conv1.weight f4 [6, 3, 5, 5]
0	0x3cb502f0	0.022096127
1	0x3d089fa2	0.033355363
2	0xbe12dee6	-0.14342842
3	0xbe15683e	-0.14590546
4	0x3c8055dc	0.015665941
5	0xbd7f225c	-0.062288627
6	0xbd9393e1	-0.0720594
7	0x3db7f537	0.08982318
8	0x3ced0448	0.028932706
9	0xbbae06aa	-0.005310853
10	0xbcb6f23e	-0.022332307
11	0x3b0650b7	0.0020494887
12	0x3d643bef	0.05572122
13	0x3ce55ec0	0.027999282
14	0x3df3173e	0.118696675
15	0x3d24a514	0.040196493
16	0x3df69b07	0.12041288
17	0x3e1573b4	0.14594918
18	0x3c87465d	0.016513044
19	0xbc08a6ac	-0.008340519
20	0x3c832e37	0.016013248
21	0xbc794ddc	-0.015216317
22	0x3d9ece11	0.07754148
23	0x3d9ba9eb	0.07600769
24	0xbc1cff03	-0.009582284
25	0x3d3524aa	0.04422442
26	0xbd73fe6e	-0.059568815
27	0xbc49cb71	-0.012316571
28	0x3e0e1966	0.13876876
29	0xbc814f1f	-0.015784798
30	0xbde4aef7	-0.111661844
31	0xbcab53d7	-0.020914001
32	0x3da640d0	0.08117831
33	0x3d4848a8	0.048897415
34	0x3c140166	0.009033537
35	0xbe1e29bc	-0.15445608
36	0x3d3aa817	0.04557046
37	0x3e59149c	0.21199268
38	0x3e234b51	0.159467
39	0x3e1fb09c	0.15594715
40	0x3c8a340f	0.016870527
41	0xbcebf4d9	-0.028803276
42	0xbc95f0b3	-0.01830325
43	0x3e6448b6	0.22293362
44	0x3dab51b7	0.08365195
45	0x3d72c91d	0.059273828
46	0x3da9b55d	0.082865454
47	0x3df026df	0.11726164
48	0xb8c925dc	-9.591479e-05
49	0x3d70895f	0.058724757
50	0xbe2c5fff	-0.16833495
51	0x3bc5bead	0.006034693
52	0x3daddcce	0.08489381
53	0x3da05a6e	0.07829748
54	0x3d8a18c0	0.06743002
55	0xbde40008	-0.111328185
56	0x3c6793f7	0.014134399
57	0x3d8ac702	0.06776239
58	0x3d19920b	0.037492793
59	0x3db110ac	0.08645758
60	0xbd508c9d	-0.05091535
61	0x3c0781d8	0.008270703
62	0x3d63cb96	0.055614077
63	0x3db98c9b	0.090600215
64	0x3d1a5ba1	0.03768504
65	0xbe07390f	-0.1320536
66	0xbde07f41	-0.10961772
67	0x3b89ab38	0.004201319
68	0x3ccc0f0c	0.024909519
69	0x3cd47871	0.025936337
70	0xbe0393a7	-0.12849294
71	0x3d2dfc1a	0.04247675
72	0xbe22f0a0	-0.15912104
73	0xbe0b0dc8	-0.13579476
74	0xbe080702	-0.13283923
75	0x3e0daf22	0.13836339
76	0x3dfe0806	0.12403874
77	0x3d8efb87	0.06981569
78	0xbd913cf1	-0.07091702
79	0xbd8084c4	-0.06275323
80	0x3c2953d4	0.010334928
81	0xba9ed26b	-0.0012117153
82	0x3c3e6ee8	0.011623122
83	0xbdbc0898	-0.09181327
84	0x3cfa0aa5	0.030522654
85	0xbde0e49c	-0.10981104
86	0xbe9c179e	-0.30486768
87	0xbe91e45c	-0.28494537
88	0x3cd593bb	0.02607142
89	0x3e26b92c	0.16281575
90	0xbbb417a5	-0.0054959827
91	0x3ca7acf4	0.020468213
92	0xbd627ed9	-0.055296753
93	0xbd0a6239	-0.03378508
94	0xbd9cb369	-0.07651407
95	0x3e1284f3	0.14308529
96	0x3e1d4c69	0.1536118
97	0x3d2ff23b	0.04295562
98	0x3dff3bdc	0.12462589
99	0x3d8899ff	0.066699974
100	0x3d8b8f92	0.06814493
101	0x3cd16154	0.025559105
102	0x3d2c3bee	0.04204934
103	0x3d44550e	0.047932677
104	0x3dfa3c24	0.12218502
105	0xbdb060a3	-0.08612182
106	0xbdd8d876	-0.10588162
107	0x3dcb0857	0.099137
108	0xbd89dcb0	-0.06731546
109	0xbd9eeda0	-0.07760167
110	0xbd87d24c	-0.06631908
111	0xbea34c7c	-0.3189429
112	0xbe71d433	-0.23616104
113	0x3d7049aa	0.058664
114	0xbc29c0c7	-0.010360903
115	0xbddd0836	-0.10792582
116	0x3e33c705	0.17556389
117	0xbd3554a1	-0.04427016
118	0x3bf6a7d4	0.007527331
119	0xbdb658a6	-0.08903627
120	0x3df68568	0.12037164
121	0x3e815c7e	0.25265878
122	0x3df53083	0.119721435
123	0x3da651c1	0.08121062
124	0xbda99bb0	-0.08281648
125	0x3a824ca8	0.0009941058
126	0x3d01a779	0.031653855
127	0x3dfd2245	0.12360052
128	0x3da9f1c6	0.08298068
129	0xbc248b22	-0.0100429375
130	0x3caabbeb	0.02084156
131	0x3e007711	0.1254542
132	0x3de54c69	0.11196215
133	0xbe2017b7	-0.15634046
134	0xbc9cf68c	-0.019160531
135	0xbe172b10	-0.14762521
136	0xbea5dd8a	-0.32395583
137	0xbe94a31b	-0.2903069
138	0x3d74c464	0.059757605
139	0x3d969735	0.07353059
140	0x3d9d4290	0.076787114
141	0x3d8ec963	0.06972005
142	0x3cb791e4	0.022408433
143	0xbcebf971	-0.028805466
144	0xbdfd9c98	-0.123833835
145	0xbd145406	-0.036212943
146	0x3e319eff	0.17345808
147	0x3e09220b	0.13391893
148	0xbcc8072b	-0.02441748
149	0x3d3f960c	0.046773955
150	0x3ca24da0	0.019812405
151	0xbd8b08ed	-0.06788812
152	0xbe2618ce	-0.162204
153	0x3d16cbd2	0.036815472
154	0xbdae3cea	-0.08507712
155	0x3df82e1a	0.12118168
156	0xbda1c9fd	-0.07899854
157	0xbe08711f	-0.13324402
158	0x3e31b67b	0.17354767
159	0xbd2eb4a1	-0.04265273
160	0x3e4a7e66	0.1977478
161	0xbd77e96b	-0.06052534
162	0xbe3e8b31	-0.18607785
163	0xbd2ebb43	-0.042659055
164	0xbd5f835f	-0.054568645
165	0x3c74ca66	0.014940834
166	0x3e150265	0.14551695
167	0xbe3bce6f	-0.18340467
168	0xbdf74f1b	-0.12075635
169	0x3d8c3b55	0.06847254
170	0xbbf307f0	-0.0074167177
171	0x3d0e9be4	0.034816638
172	0x3cf1a6f9	0.029498564
173	0xbdb70924	-0.0893729
174	0xbd18d0a2	-0.037308343
175	0x3d854667	0.06507569
176	0x3de272a9	0.11057026
177	0xbc31e5f2	-0.010858046
178	0x3e2d9ef7	0.16955172
179	0x3d20b987	0.039239433
180	0x3df24d5e	0.11831163
181	0x3e1d3870	0.1535356
182	0xbc93d090	-0.018043786
183	0x3dab0679	0.08350844
184	0xbde4e439	-0.111763425
185	0x3e39307c	0.18084902
186	0x3cfd9073	0.030952668
187	0xbe1d5dae	-0.15367767
188	0xbda71522	-0.08158328
189	0x3cfafb3f	0.030637382
190	0x3e4a5338	0.19758308
191	0x3e887390	0.26650667
192	0x3c319956	0.010839781
193	0xbe54a3fe	-0.20765683
194	0x3e5880d8	0.211429
195	0x3da4efad	0.08053527
196	0x3dc2cdd5	0.095119156
197	0x3baf6996	0.005353163
198	0x3ccb14d2	0.024790201
199	0xbb9448ab	-0.0045252643
200	0xbd09a484	-0.03360416
201	0xbd867f48	-0.06567246
202	0xbd5412a7	-0.0517756
203	0x3d6792da	0.056536533
204	0xbe0aa997	-0.13541256
205	0x3d17d543	0.037068617
206	0xbdf7df9b	-0.12103196
207	0xbe73222b	-0.23743503
208	0x3e08f404	0.13374335
209	0xbdb3c75b	-0.087782584
210	0x3b2911b3	0.0025797903
211	0xbc0abae4	-0.00846741
212	0xbe0c7999	-0.13718261
213	0x3d6adb8f	0.057338294
214	0xbd996ab2	-0.07491054
215	0xbcbaf1d4	-0.02282039
216	0x3e0adc96	0.1356071
217	0xbe296a0e	-0.16544363
218	0xbe41a027	-0.1890875
219	0x3b986f35	0.004651929
220	0xbd2e5211	-0.042558733
221	0x3e0df012	0.13861111
222	0xbbc3cd38	-0.0059753917
223	0xbde8ec6d	-0.1137322
224	0x3c845b29	0.01615675
225	0xbd886452	-0.066597596
226	0xbd1e7187	-0.038682487
227	0xbdc5fe82	-0.09667684
228	0xbdc47296	-0.09592168
229	0xbd44e849	-0.048073087
230	0xbded9940	-0.11601496
231	0xbc72133c	-0.014775094
232	0xbda69560	-0.0813396
233	0xbcad850d	-0.021181608
234	0x3ccd3de2	0.025053922
235	0x3c9984bf	0.018740056
236	0xbe1ed38e	-0.15510389
237	0xbe124a60	-0.14286184
238	0xbe20bb75	-0.15696509
239	0xbc5d3f45	-0.013503854
240	0x3d05a925	0.032632012
241	0xbe218ce2	-0.15776399
242	0xbe54b210	-0.2077105
243	0x3d2b2c93	0.041790556
244	0xbda3764d	-0.079815485
245	0xbd732613	-0.059362482
246	0x3d127834	0.035759166
247	0x3d3befef	0.045883115
248	0xbdf4b59e	-0.11948703
249	0x3deaf1d9	0.1147191
250	0xbd01d83d	-0.03170036
251	0xbd44dc4e	-0.04806166
252	0xbdca156a	-0.09867366
253	0xbda549f2	-0.080707446
254	0xbdbab99b	-0.09117433
255	0xbc8e7821	-0.017391266

conv1.bias f4 [6]
0	0xbe5373a5	-0.20649584
1	0xbaa65438	-0.0012689894
2	0x3df1eac7	0.11812358
3	0xbd12a152	-0.03579838
4	0xbe379e8e	-0.17931578
5	0x3d91b4d1	0.07114566

conv2.weight f4 [16, 6, 5, 5]
0	0xbcb598f9	-0.02216767
1	0xbc046fcb	-0.008083294
2	0x3d4d65d9	0.050145958
3	0x3d484ebb	0.04890321
4	0x3e94f8d4	0.2909609
5	0xbdb63410	-0.08896649
6	0xbd8bc877	-0.06825345
7	0xbd1da606	-0.03848841
8	0x3d9c79c3	0.07640412
9	0x3e88c918	0.26715922
10	0xbe1b56ec	-0.15169877
11	0xbc402de3	-0.01172969
12	0x3dc456ae	0.09586845
13	0x3e02723b	0.12738888
14	0x3ddfc635	0.10926477
15	0x3b022b46	0.0019862219
16	0x3d8b8e14	0.068142086
17	0x3db97538	0.09055561
18	0x3ca0ae8d	0.019614482
19	0x3cf98d04	0.03046275
20	0x3d153d1a	0.036435224
21	0x3de4818c	0.111575216
22	0x3e22e543	0.15907769
23	0x3cb778b9	0.022396432
24	0x3ded3f90	0.11584389
25	0x3d5e985c	0.05434452
26	0xbd4ccebd	-0.05000185
27	0xbd02938a	-0.031878985
28	0x3db90b4a	0.09035356
29	0x3e297262	0.1654754
30	0xbe1e2cc6	-0.15446767
31	0xbd268280	-0.0406518
32	0xbd4a93a7	-0.04945722
33	0x3dcd78b6	0.100327894
34	0x3d007245	0.031358976
35	0xbe45163c	-0.19246763
36	0xbd2b05c9	-0.041753564
37	0x3d7f892d	0.06238668
38	0xbdb06415	-0.08612839
39	0xbe8f9a65	-0.2804748
40	0xbccc3bd1	-0.024930866
41	0x3e19ad60	0.15007544
42	0xbd79fbba	-0.06103108
43	0xbebdc041	-0.3706074
44	0xbcfe316e	-0.03102943
45	0xbdd70939	-0.10499806
46	0xbd176b41	-0.03696752
47	0xbdbe580a	-0.09294136
48	0xbc207fc2	-0.009796085
49	0x3df9777a	0.121809915
50	0xbe0f21a1	-0.13977672
51	0xbce8e9ea	-0.028431851
52	0xbc9b1443	-0.01893056
53	0xbd83f4f8	-0.064432085
54	0xbdd0e379	-0.10199637
55	0xbdcebfe9	-0.10095198
56	0xbdb5ddbb	-0.08880182
57	0xbd40b022	-0.047042973
58	0xbdf86dde	-0.121303305
59	0xbe12e40e	-0.14344808
60	0xbe135f8c	-0.14391917
61	0xbe5cb058	-0.21551645
62	0xbe8cceda	-0.27501565
63	0xbe4689ee	-0.19388554
64	0xbc33707b	-0.01095211
65	0xbe829cf4	-0.2551037
66	0xbea62e15	-0.32457033
67	0xbe768e87	-0.24077807
68	0xbdd9e327	-0.10639029
69	0x3d848d63	0.0647228
70	0xbe743862	-0.23849633
71	0xbe43524b	-0.19074361
72	0xbe3c494c	-0.18387336
73	0xbdc0dd95	-0.094172634
74	0x3d84b6d1	0.06480182
75	0x3d37b6fb	0.04485224
76	0x3d445e10	0.047941267
77	0x3d804f06	0.062650725
78	0x3d920dd1	0.071315415
79	0x3e335be4	0.17515522
80	0xbdd12a8b	-0.102131926
81	0xbe279be4	-0.16368061
82	0xbd2450f7	-0.040116277
83	0xbbc8dc53	-0.0061297803
84	0x3c1bc272	0.009506809
85	0xbbe424c6	-0.0069623915
86	0xbdcffcd4	-0.10155645
87	0xbe04aec0	-0.12957287
88	0xbd6bb02d	-0.05754106
89	0xbb80d843	-0.0039320304
90	0x3bd22c0d	0.0064139427
91	0xbdbe2229	-0.09283859
92	0xbdeb171c	-0.11479017
93	0xbd0f53ef	-0.034992155
94	0x3cef9e8b	0.029250404
95	0x3e2d6224	0.16931969
96	0x3d5072d7	0.05089077
97	0x3db3757d	0.087626435
98	0x3d59befd	0.053160656
99	0x3d8748e2	0.06605698
100	0x3d8391e8	0.06424314
101	0x3d1ae8f1	0.037819806
102	0x3cafadd1	0.021445187
103	0xbdb1c22b	-0.08679613
104	0xbd55cd48	-0.052197725
105	0x3ce2bb5e	0.027677234
106	0x3d7c74c1	0.061634783
107	0x3d824f45	0.06362776
108	0xbc351614	-0.011052627
109	0xbcc4941d	-0.023996407
110	0xbcf20ea3	-0.029547995
111	0xbda907c3	-0.082534336
112	0xbd7404d7	-0.059574928
113	0x3c88cb67	0.016698552
114	0xbc868c99	-0.016424464
115	0x3d85f994	0.06541744
116	0xbd1d765d	-0.03844296
117	0x3b582680	0.0032981932
118	0xbd090f3f	-0.033461805
119	0x3d54f3eb	0.05199043
120	0xbd6bbfa1	-0.0575558
121	0xbcc1ca66	-0.023656081
122	0x3d6f2619	0.058385942
123	0x3b941ace	0.004519797
124	0x3c6c1525	0.014409338
125	0x3c952b25	0.01820905
126	0x3ced8a67	0.02899666
127	0xbd7b3044	-0.061325327
128	0x3dfe0cca	0.12404783
129	0xbd122def	-0.035688337
130	0x3d6c5a57	0.057703342
131	0x3d9ea817	0.07746904
132	0x3c87f924	0.016598292
133	0x3bda8d6b	0.0066696904
134	0xbcea0161	-0.02856511
135	0xbd97b403	-0.074073814
136	0x3cfb69b1	0.030690046
137	0x3e040f9d	0.12896581
138	0x3db559ca	0.088550165
139	0xbc467770	-0.012113437
140	0xbe504efd	-0.20342632
141	0xbd9b5295	-0.07584111
142	0x3db7d714	0.0897657
143	0x3d9ed71d	0.07755873
144	0x3d18a42b	0.037265938
145	0xbe2c8845	-0.16848858
146	0xbe4192e0	-0.18903685
147	0xbdcea8ac	-0.10090765
148	0xbdc07b5d	-0.0939853
149	0x3c8f5900	0.017498493
150	0x3e307bc5	0.17234714
151	0x3d3ee768	0.046607405
152	0x3e0af4f0	0.13569999
153	0x3d97ce21	0.07412363
154	0x3d0e7005	0.0347748
155	0x3d11f9ae	0.035638504
156	0x3d736e66	0.059431456
157	0xbc1eb332	-0.009686278
158	0xbcf869a5	-0.030323813
159	0xbdd11121	-0.10208345
160	0x3e142308	0.14466488
161	0x3de1af60	0.11019778
162	0xbd4696f1	-0.048483793
163	0xbdfd680a	-0.123733595
164	0xbe1b5748	-0.15170014
165	0x3e31a95d	0.17349763
166	0x3df2f0e4	0.118623525
167	0xbd2257d8	-0.039634556
168	0xbdff46f6	-0.124647066
169	0xbe0014af	-0.1250789
170	0xbc46db27	-0.012137211
171	0xbdab8ea3	-0.08376815
172	0xbe5b08b0	-0.21390033
173	0xbe1b74aa	-0.15181223
174	0xbe103489	-0.1408254
175	0x3dd9252b	0.10602792
176	0x3d88fd69	0.06688959
177	0x3da2a84a	0.07942255
178	0x3dc0f317	0.09421366
179	0x3c60e0bb	0.013725455
180	0x3d8aa7fd	0.067703225
181	0x3dfee820	0.12446618
182	0xbdcbf6ff	-0.0995922
183	0xbe5e8972	-0.21732119
184	0xbe971acb	-0.2951263
185	0x3e8fd401	0.28091434
186	0x3c3e69eb	0.0116219325
187	0xbeadaf7f	-0.33922955
188	0xbeaa4d72	-0.3326221
189	0xbebfdef6	-0.37474793
190	0xbdfd76cb	-0.123761736
191	0xbe8da4f3	-0.2766491
192	0xbec4eb4f	-0.38460776
193	0xbea053c6	-0.31313914
194	0xbe891e10	-0.26780748
195	0xbe8589f0	-0.260818
196	0xbe5dfc24	-0.21678215
197	0xbec2babb	-0.3803309
198	0xbebb3735	-0.36565557
199	0xbe9d2a82	-0.30696493
200	0x3e0729f3	0.13199596
201	0xbd43edc3	-0.04783417
202	0xbe4352d7	-0.1907457
203	0xbe3a6de6	-0.18205985
204	0xbdc6a9bd	-0.09700344
205	0x3d2d4469	0.04230157
206	0xbd90dd96	-0.07073514
207	0xbde2d1f5	-0.110752024
208	0x3c014f66	0.007892465
209	0xbd5c67e3	-0.05381001
210	0xbdacac76	-0.08431332
211	0xbcc7057c	-0.024294607
212	0x3de76a53	0.112995766
213	0x3c3d3402	0.011548044
214	0x3dc593b9	0.096473165
215	0xbcf7f333	-0.030267334
216	0x3e4d194e	0.20029184
217	0x3dd80eba	0.10549684
218	0x3e01f052	0.12689331
219	0x3d8a11ea	0.06741698
220	0xbc67d481	-0.014149786
221	0x3ddca864	0.107743055
222	0x3dc8cefa	0.09805103
223	0xbcd7b91e	-0.026333388
224	0xbc158faa	-0.00912849
225	0x3e7e6f5f	0.24847172
226	0x3e23429f	0.15943383
227	0x3df8574a	0.12126024
228	0x3d9981b0	0.07495439
229	0x3d37f4bd	0.044911135
230	0x3dda9f2e	0.10674892
231	0x3deb2d20	0.11483216
232	0x3b502716	0.0031761578
233	0xbdda8d5b	-0.10671493
234	0xbe33fc68	-0.17576754
235	0x3e1d4e99	0.15362014
236	0x3e201128	0.15631545
237	0xbd8afd32	-0.067865744
238	0xbe24dc95	-0.1609977
239	0xbe4984eb	-0.1967961
240	0x3e49f9d8	0.19724214
241	0x3e4f5d18	0.20250356
242	0xbcf169aa	-0.02946933
243	0xbe08960a	-0.13338485
244	0xbe8174f1	-0.25284532
245	0x3e86fa6c	0.26362932
246	0x3e56405f	0.20922993
247	0xbdd1117d	-0.10208414
248	0xbe9231b7	-0.28553554
249	0xbe8888fb	-0.26667008
250	0xbd11b395	-0.035571653
251	0x3c7916cb	0.015203188
252	0xbdb24c6e	-0.08705984
253	0xbcc585fa	-0.024111737
254	0xbbf4c3c5	-0.0074696266
255	0xbd610aa5	-0.054941792

conv2.bias f4 [16]
0	0xbce2c14f	-0.027680067
1	0x3e02a790	0.12759233
2	0x3e312076	0.17297539
3	0x3cbe7cab	0.023252806
4	0x3ec19d67	0.378154
5	0x3e9f551e	0.31119627
6	0xbd0f19fd	-0.034936894
7	0xbcd8bfc9	-0.026458638
8	0x3dfe2b84	0.12410644
9	0xbdf59745	-0.11991743
10	0xbead219f	-0.33814713
11	0x3b9507ba	0.00454804
12	0x3e3de0de	0.18542811
13	0xbd91dea4	-0.071225435
14	0xbbd58bcb	-0.0065169088
15	0xbda9e48c	-0.08295545

fc1.weight f4 [256, 400]
0	0x3e56e86e	0.20987102
1	0x3e22e51c	0.15907711
2	0x3cb045e3	0.0215177
3	0x3e0716d1	0.13192298
4	0x3e1d15fb	0.15340416
5	0xbce0f5fe	-0.027461048
6	0xbd29b9f5	-0.041437108
7	0xbe0edfb7	-0.13952528
8	0xbd7c7d1f	-0.061642762
9	0x3d4a245f	0.049351092
10	0xbe7eb93d	-0.2487535
11	0xbe527f5d	-0.20556398
12	0xbe683609	-0.22676863
13	0xbe1687f1	-0.14700295
14	0xbd74ec29	-0.059795532
15	0xbe6bb154	-0.23016864
16	0xbcdfa78c	-0.027301572
17	0xbe0cb3cb	-0.1374046
18	0x3acb533a	0.0015512474
19	0x3d24a79a	0.0401989
20	0xbeb8c088	-0.3608439
21	0xbe3e22e6	-0.18568
22	0xbe607a5a	-0.21921673
23	0xbcb28469	-0.021791654
24	0xbdcb0dfb	-0.09914776
25	0x3dcbd680	0.09953022
26	0x3d31031a	0.04321585
27	0xbcb345dd	-0.0218839
28	0x3bba847e	0.005692064
29	0xbdd86cf0	-0.10567653
30	0xbcfc7b90	-0.030820638
31	0xbe9f0f47	-0.31066343
32	0xbe8913e7	-0.26772997
33	0xbe06f458	-0.13179147
34	0xbe6a204d	-0.22863884
35	0xbd4fe12a	-0.050751843
36	0xbe93a9b5	-0.28840414
37	0xbe9e590a	-0.30927306
38	0xbe3614b5	-0.17781337
39	0x3bcaf7c9	0.006194089
40	0xbd9495c2	-0.072551265
41	0x3cd7b40f	0.026330976
42	0x3da4e80a	0.080520704
43	0xbd91791f	-0.0710318
44	0xbdbf3e83	-0.09338095
45	0xbe2c7292	-0.1684058
46	0x3da680a9	0.08130009
47	0x3cbc0822	0.022953097
48	0x3e90b9af	0.28266665
49	0xbc90b10c	-0.017662548
50	0xbd1f1e56	-0.03884729
51	0xbc601a42	-0.013678135
52	0x3dd5c203	0.104373954
53	0xbe05f6b1	-0.13082387
54	0xbe7397b7	-0.23788343
55	0xbd9901b9	-0.07471032
56	0x3d3a3a17	0.045465555
57	0x3d3ba99a	0.04581604
58	0xbdb1efe6	-0.08688335
59	0xbe1ac355	-0.15113576
60	0xbd87391e	-0.06602691
61	0x3cfcc796	0.030856889
62	0x3dc1e040	0.094666004
63	0x3ddc283d	0.10749862
64	0xbd196516	-0.03744992
65	0xbb2d6056	-0.0026455126
66	0x3df6ec48	0.12056786
67	0x3e53e719	0.20693626
68	0x3e7a80ed	0.24463244
69	0xbd007058	-0.03135714
70	0xbc122992	-0.008921044
71	0x3c6c9518	0.014439844
72	0xbdd795d9	-0.10526628
73	0xbc3d99b9	-0.011572295
74	0xbe18293b	-0.14859478
75	0xbe08be02	-0.13353732
76	0xbc3f9f6f	-0.011695727
77	0xbd725ffb	-0.059173565
78	0xbce2b288	-0.027673021
79	0xbd64f6da	-0.05589948
80	0xbda34ad2	-0.07973255
81	0xbc0cbd6c	-0.008590084
82	0xbc642d7d	-0.013926861
83	0x3c17b888	0.009260304
84	0x3d3a23ef	0.045444425
85	0xbe43851a	-0.19093743
86	0xbd3a5f88	-0.045501262
87	0x3d5e5d18	0.054288
88	0xbbf673ab	-0.007521113
89	0xbcf5d935	-0.030010799
90	0xbe6bf9cc	-0.23044509
91	0xbaeb15e5	-0.0017935602
92	0x3dccf20b	0.100071035
93	0x3dc60e73	0.09670725
94	0x3d681af1	0.05666632
95	0xbe1680fd	-0.14697643
96	0xbdba7d73	-0.09105959
97	0x3d74b463	0.059742343
98	0xbbc1c3e1	-0.005913243
99	0x3e2a03ab	0.16602962
100	0x3e83b128	0.25721097
101	0x3e90cb40	0.28280067
102	0xbcdab378	-0.026696905
103	0xbe5622d2	-0.2091172
104	0x3e25f744	0.16207606
105	0x3e58d742	0.21175864
106	0x3dc5bf86	0.09655671
107	0xbde19a86	-0.11015801
108	0xbe35273a	-0.17690745
109	0xbd1a560f	-0.037679728
110	0x3b6a6fcb	0.00357722
111	0xbd5a33e8	-0.053272158
112	0xbe489cba	-0.19591036
113	0xbe450a81	-0.19242288
114	0xbe7431cd	-0.23847122
115	0xbded5438	-0.11588329
116	0xbe8a711d	-0.27039424
117	0xbe81d638	-0.25358748
118	0xbed42eae	-0.41441864
119	0xbe73799f	-0.23776864
120	0xbe5a852b	-0.21339862
121	0xbe932556	-0.28739423
122	0xbe84eaac	-0.2596029
123	0xbef8ec91	-0.48617986
124	0xbe5325bd	-0.20619865
125	0x3e1157ff	0.14193724
126	0xbcbc5029	-0.022987442
127	0xbe105cae	-0.14097854
128	0x3ce97203	0.028496748
129	0x3ecdd23c	0.4019946
130	0x3de110c8	0.10989529
131	0xbe317f25	-0.17333658
132	0xbea8b053	-0.32947025
133	0xbeb29972	-0.34882694
134	0x3d85735b	0.06516143
135	0xbbf37b17	-0.007430445
136	0xbbf34bbc	-0.0074247997
137	0xbe16fc5c	-0.14744705
138	0xbe4601b7	-0.19336592
139	0x3d8e27fa	0.06941219
140	0x3e04ac20	0.12956285
141	0x3e11a3ca	0.14222637
142	0xbd2acfeb	-0.041702192
143	0x3de67424	0.11252621
144	0x3d760e46	0.060072206
145	0xbe7b4267	-0.24537049
146	0xbea8ca61	-0.32966903
147	0xbed5da67	-0.4176819
148	0xbeabb961	-0.3353987
149	0xbe7b0728	-0.24514449
150	0xbebcf3e5	-0.36904827
151	0xbe229b73	-0.15879612
152	0xbea0785d	-0.3134183
153	0xbe886247	-0.2663748
154	0xbeda9661	-0.42692855
155	0xbe89b213	-0.26893672
156	0xbe2bd703	-0.16781239
157	0xbe3da783	-0.18520932
158	0xbe08c613	-0.1335681
159	0xbe8f0526	-0.27933615
160	0xbd6ca9e3	-0.057779204
161	0xbcefc8cd	-0.029270554
162	0x3de54215	0.11194245
163	0x3d573fed	0.0525512
164	0xbd8e4961	-0.0694759
165	0x3d0d2e6c	0.0344681
166	0x3cde042d	0.0271016
167	0x3df5b49e	0.119973406
168	0x3d8278c6	0.06370692
169	0x3bc7da2d	0.0060990066
170	0xbc4a213f	-0.012337028
171	0xbb5fe9fd	-0.0034166567
172	0x3e05210a	0.13000885
173	0x3e5c0a37	0.21488272
174	0x3e25df55	0.16198476
175	0x3d9413ac	0.072303146
176	0xbc4b8c78	-0.012423627
177	0xbbc805dc	-0.006104214
178	0x3d695b0e	0.056971602
179	0xbd70400d	-0.058654834
180	0xbe665d02	-0.22496417
181	0xbe161d7f	-0.1465969
182	0xbda8e616	-0.082470104
183	0x3d04d4e8	0.032429606
184	0xbe1557de	-0.145843
185	0xbe3f7fc8	-0.18701088
186	0xbe70f311	-0.23530222
187	0xbea3f525	-0.32022968
188	0xbe2b55c6	-0.16731939
189	0xbe1d85da	-0.15383092
190	0xbe051cc2	-0.12999251
191	0xbde76e41	-0.11300326
192	0xbdd54e60	-0.104153395
193	0xbdb1d26c	-0.08682713
194	0x3d2c5484	0.042072788
195	0x3e27975e	0.16366336
196	0xbd85b0ff	-0.065279
197	0xbc7210e5	-0.014774536
198	0x3dcd39bd	0.10020778
199	0x3e41af84	0.1891461
200	0xbd0cbf34	-0.034362033
201	0x3de7b0e9	0.1131304
202	0x3dbff1c8	0.09372288
203	0x3dd817a0	0.10551381
204	0xbab14abb	-0.00135263
205	0x3cc59f68	0.024123862
206	0x3d881504	0.066446334
207	0x3e1d9872	0.15390185
208	0x3de19778	0.110152185
209	0xbe02280b	-0.12710588
210	0xbe250faf	-0.16119264
211	0xbdb03460	-0.0860374
212	0xbdd3b3c3	-0.10337021
213	0xbdfddccc	-0.12395629
214	0xbe8758fa	-0.2643507
215	0xbdb04226	-0.08606367
216	0xbd6f99a8	-0.058496147
217	0xbe4ce82d	-0.20010443
218	0xbdb29f70	-0.087218165
219	0xbd3008d7	-0.04297718
220	0x3cc7d53b	0.024393668
221	0x3c885ddb	0.016646316
222	0xbc11f899	-0.008909368
223	0x3c9a845e	0.018861946
224	0x3e765d03	0.24058919
225	0x3cb814bb	0.022470823
226	0xbd8127f7	-0.06306451
227	0x3db5d275	0.08878032
228	0xbd2049ef	-0.03913301
229	0xbdd11d28	-0.10210639
230	0xbe12aeca	-0.14324489
231	0xbe3507dd	-0.17678781
232	0x3c26b90c	0.010175955
233	0xbc0dfdc0	-0.008666456
234	0x3d00763a	0.03136275
235	0x3b63535f	0.0034687144
236	0xbd23cc27	-0.039989617
237	0xbe5a3773	-0.21310215
238	0x3df9e717	0.1220228
239	0x3d2e3200	0.042528152
240	0xbcbea34b	-0.023271224
241	0x3dba25a1	0.090892084
242	0x3cbfa7f0	0.023395509
243	0x3df1047b	0.11768433
244	0xbda49ac2	-0.0803733
245	0x3e02ac57	0.12761055
246	0xbd87c9a8	-0.0663026
247	0x3e28c777	0.1648234
248	0x3dbea908	0.09309584
249	0xbe2878d6	-0.16452345
250	0xbe48cb2a	-0.19608751
251	0xbe25421c	-0.161385
252	0xbc4c4213	-0.012466925
253	0x3d929838	0.0715794
254	0xbe60c9a6	-0.21951923
255	0xbdb1dafc	-0.08684346

fc1.bias f4 [256]
0	0x3af6166f	0.0018774996
1	0x3d60e96e	0.054910116
2	0xbe31f792	-0.17379597
3	0xbd99e310	-0.07514012
4	0xbec71571	-0.38883546
5	0x3e5e5a35	0.21714099
6	0x3e1f187c	0.15536684
7	0x3e403893	0.18771581
8	0xbd837233	-0.06418266
9	0x3e43806e	0.19091961
10	0x3ee3c08b	0.44482836
11	0xbdbc5646	-0.09196143
12	0x3c4ab1c3	0.012371483
13	0xbd4ffa2b	-0.05077569
14	0x3eb53e68	0.35399175
15	0x3cf22f4f	0.029563574
16	0xbd8ff7e8	-0.07029706
17	0x3d27e41f	0.040989038
18	0xbcef18bb	-0.029186597
19	0xbd479d03	-0.048733722
20	0xbd529c06	-0.051418327
21	0xbdddcfa2	-0.108306184
22	0x3e4cff5b	0.20019285
23	0xbb93c3ef	-0.004509441
24	0x3f3a21bf	0.7270774
25	0x3e2bb400	0.16767883
26	0xbe0dc55d	-0.1384482
27	0x3da2162a	0.07914384
28	0xbd14b0b4	-0.03630133
29	0xbeebad4b	-0.4603065
30	0x3eca5ef4	0.39525568
31	0x3eb7256d	0.3577074
32	0xbe823956	-0.2543437
33	0xbd7c3784	-0.06157638
34	0x3e83e863	0.25763234
35	0xbd847fb0	-0.06469667
36	0xbcd4e36f	-0.025987355
37	0xbe8fdebc	-0.2809962
38	0xbd632bff	-0.05546188
39	0xbe14675c	-0.14492553
40	0xbea8ed8a	-0.32993728
41	0x3ece7646	0.4032461
42	0xbdce18ba	-0.1006331
43	0x3e94a823	0.29034528
44	0x3e497b00	0.19675827
45	0xbd6667d8	-0.056251377
46	0x3f06ec7e	0.5270461
47	0xbe70327c	-0.23456758
48	0x3e8e078b	0.2774013
49	0xbd8aab85	-0.06770996
50	0x3e5a7fad	0.21337767
51	0xbba6b7eb	-0.0050878427
52	0x3d4da185	0.050202865
53	0x3e2748f0	0.16336417
54	0xbd2f5c39	-0.04281256
55	0xbd643aa0	-0.05571997
56	0x3d619991	0.055078093
57	0x3e9b6f49	0.3035834
58	0x3e0b9267	0.13630067
59	0xbd527fce	-0.051391415
60	0xbd6f22af	-0.058382686
61	0xbe2a5695	-0.16634591
62	0xbc114e02	-0.008868696
63	0xbd29716a	-0.041367926
64	0x3ed9579d	0.42449656
65	0xbe0eadca	-0.13933483
66	0x3c04fd09	0.008116969
67	0xbdb33e1a	-0.08752079
68	0x3e02af8e	0.12762281
69	0xbd860792	-0.06544413
70	0x3c495222	0.012287648
71	0xbca3153a	-0.019907583
72	0xbd6b0fcc	-0.057388112
73	0xb8b60c2b	-8.680703e-05
74	0x3ec964a0	0.39334583
75	0x3c9c05f1	0.019045802
76	0xbcc6cc40	-0.024267316
77	0xbd569e52	-0.05239708
78	0x3e210f4e	0.15728495
79	0xbd29c399	-0.041446302
80	0x3e9ea19e	0.3098268
81	0x3ec5bcc3	0.38620576
82	0xbb19ca60	-0.0023466572
83	0xbd6fcc79	-0.05854461
84	0xbd84f963	-0.06492879
85	0x3e12e2c0	0.14344311
86	0xbe06f19a	-0.13178101
87	0x3e716835	0.23574908
88	0x3b8be62f	0.0042693834
89	0x3dd2fff2	0.10302724
90	0xbe397484	-0.18110853
91	0xbdf985b2	-0.121837035
92	0xbb86ca31	-0.0041134586
93	0xbd3994ee	-0.045308046
94	0x3ecf2833	0.40460357
95	0xbea10ab6	-0.31453484
96	0xbbbcb983	-0.0057594194
97	0xbe8a4694	-0.27006972
98	0x3ee9ee49	0.4568961
99	0xbd757502	-0.05992604
100	0x3ed6dd7a	0.41965848
101	0xbefaf969	-0.4901841
102	0xbe103fd4	-0.14086848
103	0xbe6338a1	-0.22189571
104	0xbcbfc0c0	-0.02340734
105	0xbe837396	-0.25674123
106	0x3e703279	0.23456754
107	0xbb8f042d	-0.0043645115
108	0x3eedc314	0.46437895
109	0x3d0c6594	0.03427656
110	0x3ebb5029	0.36584595
111	0x3c519b26	0.012793338
112	0xbe097bf8	-0.13426197
113	0x3c4a25af	0.012338086
114	0xbe83afec	-0.25720155
115	0x3e92351e	0.2855615
116	0x3ed799a2	0.421094
117	0x3e64193c	0.22275251
118	0xbc2becd7	-0.010493479
119	0xbde50141	-0.1118188
120	0x3d92dcd4	0.07171026
121	0x3e6e4cfb	0.23271553
122	0x3ecc2b46	0.39876765
123	0xbc30d4d7	-0.0107929325
124	0x3d7bfaa4	0.061518326
125	0xbd47bdd8	-0.048765033
126	0xbe97d2e4	-0.29653084
127	0x3e9c10e9	0.3048165
128	0x3d9fc2e0	0.07800841
129	0x3d9c12be	0.07620762
130	0xbda99849	-0.08280999
131	0x3e16721d	0.14691968
132	0x3ecff1e7	0.40614244
133	0x3ed23bd4	0.4106127
134	0xbda378b3	-0.07982006
135	0x3c88efb8	0.01671587
136	0x3eafb7c6	0.34319896
137	0x3c206209	0.009788998
138	0x3e37596d	0.17905207
139	0xbd1522b2	-0.03641004
140	0x3ebd53d2	0.36978012
141	0x3f391c03	0.7230837
142	0x3ecffd4c	0.40622938
143	0x3ef382e5	0.47560802
144	0x3b138e7d	0.002251535
145	0xbd724449	-0.059147153
146	0x3d1bf559	0.03807578
147	0x3d25f4dc	0.04051672
148	0x3c788051	0.015167312
149	0xbe19ccb4	-0.15019494
150	0x3df5daef	0.12004649
151	0xbe3311a5	-0.174872
152	0x3e24e9c9	0.16104807
153	0x3e911bac	0.28341424
154	0x3d80788c	0.062729925
155	0xbd29efc3	-0.04148842
156	0x3e763b30	0.24046016
157	0x3e574e73	0.2102602
158	0xbdc4a7d7	-0.096023254
159	0x3f058960	0.5216274
160	0x3ececa1f	0.4038858
161	0x3d9d29bb	0.07673975
162	0xb6b975de	-5.527151e-06
163	0x3e4982a4	0.19678742
164	0x3ee6b1a1	0.45057395
165	0x3d85537a	0.065100625
166	0x3dc6cab9	0.09706635
167	0x3e8a9853	0.2706934
168	0x3f00854b	0.5020339
169	0x3e38ed56	0.18059286
170	0x3ec574cf	0.3856568
171	0xbd7e593c	-0.06209682
172	0x3d67c6c7	0.056586053
173	0x3e4a5ec7	0.19762717
174	0x3cc09dfe	0.023512837
175	0xbeb3062e	-0.34965652
176	0x3e26abea	0.16276518
177	0x3e986930	0.29767752
178	0x3e33591b	0.1751446
179	0xbdac5ec8	-0.084165156
180	0x3e17d4e2	0.14827302
181	0x3db2718d	0.08713064
182	0xbe6045e7	-0.21901666
183	0xbd12082d	-0.03565233
184	0x3e439ab8	0.1910199
185	0xbd4e11e2	-0.050310023
186	0xbcb153a5	-0.02164633
187	0xbd711a08	-0.058862716
188	0xbcb2952a	-0.021799643
189	0xbdf1bcb2	-0.11803569
190	0x398c5536	0.00026766368
191	0x3eb045d8	0.34428287
192	0x3e54a063	0.20764308
193	0x3dfeecea	0.124475315
194	0x3e43d4e3	0.19124179
195	0x3e92255f	0.28544137
196	0x3b7e2bd7	0.0038783455
197	0x3e9d0149	0.30665043
198	0x3edecbb1	0.4351478
199	0xbd8e958b	-0.06962117
200	0x3bede7a2	0.007260279
201	0xbdc37190	-0.09543145
202	0x3cbbfd3c	0.0229479
203	0xbc36bce4	-0.0111534335
204	0x3ecacf49	0.3961127
205	0x3e70bd64	0.23509747
206	0xbd771271	-0.06032032
207	0x3f012532	0.5044738
208	0xbeaf23d4	-0.34207022
209	0x3d476ade	0.0486859
210	0xbd8d38fb	-0.06895634
211	0x3cea5245	0.028603682
212	0xbd05fc30	-0.032711208
213	0x3eb7d2b0	0.3590293
214	0x3caec9d2	0.02133647
215	0xbe3944c2	-0.18092635
216	0xbd3b2377	-0.04568812
217	0xbd7169f9	-0.058938954
218	0xbd3d92ce	-0.046282582
219	0x3e997cb6	0.2997796
220	0xbd00fe66	-0.031492613
221	0x3da0f6c9	0.078595705
222	0x3e837111	0.256722
223	0x3d98d73d	0.074629284
224	0x3e5045ad	0.20339079
225	0x3e445933	0.19174652
226	0xbd3bf658	-0.04588923
227	0x3e7f4bc2	0.24931243
228	0xbeb6a011	-0.35668996
229	0xbd2fe51b	-0.0429431
230	0xbca4b60d	-0.02010634
231	0x3eb18699	0.34673002
232	0xbd207cd8	-0.03918156
233	0x3dabf658	0.08396596
234	0x3e60498c	0.21903056
235	0x3e4233ca	0.18965068
236	0x3e53ecfb	0.2069587
237	0x3ea1f6be	0.31633562
238	0x3c0bbdb5	0.008529116
239	0xbdc51137	-0.09622424
240	0x3e8d2b01	0.27571872
241	0xb9472c03	-0.00018994515
242	0xbc2d3c38	-0.010573439
243	0x3e5b5b62	0.21421579
244	0x3eb60d97	0.35557243
245	0x3e3d9c52	0.18516663
246	0xbd431179	-0.047624085
247	0xbd1b4832	-0.037910648
248	0x3eaec808	0.34136987
249	0xbe1bdb32	-0.15220335
250	0x3ea9ffd8	0.33203006
251	0xbc94855a	-0.018129993
252	0xbd67b0e0	-0.056565166
253	0xbd566dea	-0.052350916
254	0xbca54839	-0.02017604
255	0xbdaa55d8	-0.08317155

fc2.weight f4 [10, 256]
0	0xbe4e78bc	-0.20163244
1	0xbbc3415f	-0.0059587206
2	0x3e23ceff	0.15996931
3	0x3d2355b6	0.039876662
4	0xbd347466	-0.04405632
5	0x3d95ece2	0.073205724
6	0x3ce00db3	0.027350282
7	0xbce0faf0	-0.027463406
8	0xbd9441c0	-0.07239103
9	0xbdc1ecc0	-0.094689846
10	0x3d80a26a	0.06280978
11	0x3d59141f	0.052997705
12	0xbad3b1c9	-0.0016151007
13	0x3c51d329	0.012806692
14	0xbeb7620d	-0.35816994
15	0xbd623c8f	-0.055233534
16	0xbdd9ba09	-0.106311865
17	0xbd6e1258	-0.058122963
18	0xbd978dce	-0.07400094
19	0xbd2f2215	-0.042757113
20	0xbd2e5df7	-0.04257008
21	0xbbee510f	-0.0072728465
22	0xbe37f027	-0.17962705
23	0x3a139700	0.0005630106
24	0x3e0439c2	0.12912658
25	0xbe4d191d	-0.20029111
26	0xbe4fb59c	-0.20284122
27	0xbd9a847c	-0.07544801
28	0x3dbb8b9c	0.09157488
29	0x3c327661	0.010892482
30	0xbe079113	-0.13238935
31	0xbe27d006	-0.16387948
32	0x3da00da6	0.07815103
33	0xbd323ee9	-0.043517027
34	0xbdb5bb62	-0.08873631
35	0xbd7ba272	-0.061434217
36	0xbcda559c	-0.02665215
37	0x3c7b1bd5	0.01532646
38	0x3cc1ca21	0.023655953
39	0x3d9989e7	0.07497006
40	0x3d7383f0	0.059451997
41	0x3e0a9b54	0.13535815
42	0xbde9c117	-0.11413782
43	0xbe54e9a3	-0.2079225
44	0x3d8f52d3	0.06998219
45	0x3cf7bd5b	0.030241659
46	0x3d1fb589	0.038991485
47	0x3dbd8737	0.09254306
48	0xbcd887f0	-0.026432008
49	0xbd024f58	-0.03181395
50	0xbd8581c1	-0.06518889
51	0xbe5d87b2	-0.21633795
52	0x3e132e54	0.14373142
53	0xbe59f50c	-0.21284884
54	0xbd932e84	-0.071866065
55	0xbb271e1e	-0.002550013
56	0x3da13c1e	0.078727946
57	0x3e0cc34f	0.1374638
58	0x3cc90dfd	0.024542803
59	0x3b4f5cde	0.0031641047
60	0x3e64d904	0.2234841
61	0x3d9c3775	0.07627765
62	0xbc5012a0	-0.012699753
63	0x3d6023a5	0.054721493
64	0xbe0abef8	-0.13549411
65	0xbe4bbf22	-0.1989713
66	0x3d45a95b	0.048257213
67	0x3e742275	0.2384127
68	0xbe007cc7	-0.12547599
69	0xbcd5eb5f	-0.02611321
70	0xbda94786	-0.08265595
71	0xbd5940c5	-0.053040285
72	0x3ce8b391	0.028405936
73	0xbd6a3bfc	-0.05718611
74	0xbde2b52c	-0.11069712
75	0xbcc2fed9	-0.023803161
76	0x3c1c8cc6	0.009555047
77	0xbd613815	-0.054985125
78	0x3d472740	0.048621416
79	0xbd9d6fe1	-0.07687355
80	0x3d59d868	0.053184897
81	0x3e4abcb1	0.19798543
82	0xbd8d9eeb	-0.06915077
83	0xbd461bb2	-0.048366256
84	0xbdb19372	-0.08670701
85	0xbe09ffbf	-0.13476466
86	0x3d87e264	0.066349775
87	0x3d507b48	0.05089882
88	0xbcd3be84	-0.02584768
89	0x3d2fc29e	0.04291021
90	0x3c8c2b38	0.017110452
91	0x3c88848b	0.016664764
92	0x3cd1b6f3	0.025599932
93	0xbd624e67	-0.05525055
94	0xbe83fbfd	-0.2577819
95	0x3e2af899	0.16696395
96	0xbca683c9	-0.020326512
97	0x3e18520e	0.14875051
98	0xbc69cd29	-0.014270105
99	0x3ce67ce1	0.028135719
100	0xbe8e208f	-0.27759215
101	0x3d28ea4d	0.04123907
102	0xbe3c5961	-0.1839347
103	0x3cd21a21	0.025647225
104	0xbac96fc8	-0.0015368396
105	0xbd2da8de	-0.042397372
106	0x3d0116c6	0.03151586
107	0x3d15ac10	0.036541045
108	0x3e0eeedb	0.13958304
109	0x3d872d81	0.06600476
110	0x3d95b271	0.073094256
111	0x3bdf7f5f	0.0068206037
112	0x3d944a32	0.07240714
113	0xbcb771de	-0.022393163
114	0xbdca4c26	-0.098778054
115	0xbd5c71b8	-0.05381939
116	0x3dbba3f2	0.091621295
117	0xbe973b83	-0.2953759
118	0x3c7c92a5	0.015415822
119	0xbeb7253f	-0.35770604
120	0xbc8f829d	-0.017518336
121	0x3d83d02e	0.064361915
122	0x3dafa0bc	0.085755795
123	0xbc40357b	-0.011731501
124	0xbe36f5ca	-0.17867199
125	0xbd07963d	-0.033102263
126	0x3cbd8846	0.02313627
127	0x3de41d43	0.11138394
128	0x3df6ed5b	0.12056991
129	0xbe2219f1	-0.15830208
130	0xbdb501ba	-0.0883822
131	0x3cd94177	0.026520474
132	0xbdcc9eae	-0.09991203
133	0xbed26318	-0.41091228
134	0x3cea5c28	0.028608397
135	0x3bc9c2d6	0.0061572595
136	0x3c74e86f	0.014947995
137	0xbd1d02e5	-0.03833284
138	0x3d646c3f	0.055767294
139	0xbc643f0a	-0.013931045
140	0xbe8a9fc1	-0.27075008
141	0x3e2c100f	0.16803001
142	0x3dc38504	0.09546855
143	0x3de651f9	0.11246104
144	0x3c3c29e4	0.011484597
145	0xbd33e4cd	-0.043919373
146	0x3d31007d	0.043213356
147	0x3e02f07c	0.1278705
148	0x3cad9d60	0.021193206
149	0x3d94d8ef	0.07267939
150	0x3e0a00e7	0.13476907
151	0x3c8587e7	0.016300155
152	0x3dda74a6	0.1066678
153	0xbe38ab6c	-0.18034142
154	0xbde98bf2	-0.114036456
155	0x3da4bff5	0.080444254
156	0x3db57add	0.08861325
157	0xbd1c8535	-0.038212974
158	0xbdd097d1	-0.10185207
159	0xbe2d8b56	-0.16947684
160	0x3e0bcce2	0.13652375
161	0x3c6960fa	0.014244312
162	0xbdb65c4c	-0.08904323
163	0xbe202f43	-0.15643029
164	0x3d8d795a	0.069079116
165	0xbd980eb4	-0.074246794
166	0xbe797f09	-0.24364866
167	0xbdc1fd12	-0.094720975
168	0xbe21a994	-0.15787345
169	0x3dc15d0b	0.09441575
170	0xbe0e0b93	-0.13871603
171	0x3d256d76	0.040387593
172	0x3da96f83	0.08273222
173	0x3dde5595	0.10856167
174	0xbd804b60	-0.06264377
175	0xbe0d366d	-0.13790293
176	0x3e4c66c3	0.19961075
177	0xbddce438	-0.10785717
178	0xbd3bf6a8	-0.045889527
179	0xbdc030c9	-0.09384305
180	0xbd96d663	-0.0736511
181	0x3df7e786	0.121047065
182	0xbd92d883	-0.071702026
183	0xbd34c029	-0.04412857
184	0xbe3f4e1f	-0.18682145
185	0xbc924bf3	-0.017858481
186	0xbdab649b	-0.08368798
187	0x3d207b23	0.039179932
188	0xbce4952d	-0.027903164
189	0x3e4b14ef	0.19832204
190	0xbce96402	-0.02849007
191	0xbdea95ae	-0.114543304
192	0x3e2ce072	0.16882494
193	0xbe275614	-0.1634143
194	0x3e1cbb8e	0.15305921
195	0xbec944f5	-0.39310423
196	0x3c94a5da	0.01814549
197	0x3db4dfa9	0.08831722
198	0x3e68fc4b	0.22752492
199	0xbc5a8727	-0.013337887
200	0xbc66ddaf	-0.014090939
201	0x3ca5bcd7	0.020231647
202	0x3b683e7f	0.0035437641
203	0xbc8b81b7	-0.017029626
204	0xbde1616d	-0.110049106
205	0x3da3ea5f	0.08003687
206	0x3bbf1fe7	0.0058326605
207	0xbe299012	-0.16558865
208	0x3dea57d1	0.11442531
209	0xbcc2c9ab	-0.023777803
210	0x3d0d14fe	0.034443848
211	0xbe0890c9	-0.13336481
212	0xbd0feda5	-0.035138745
213	0x3dea2653	0.11433091
214	0xbd24d70b	-0.040244143
215	0xbaea4d8d	-0.0017875895
216	0x3c3d3045	0.011547153
217	0xbd73d7b7	-0.059531894
218	0x3e185e8b	0.14879815
219	0xbe450ff1	-0.19244362
220	0xbd466375	-0.048434693
221	0xbe6f718b	-0.23383157
222	0xbdc1f0de	-0.0946977
223	0xbc1cfcd7	-0.009581766
224	0x3db7223c	0.089420766
225	0x3d7a1366	0.061053656
226	0x3beee855	0.0072908797
227	0xbea6ef1f	-0.3260431
228	0x3d33f27f	0.043932434
229	0x3d19834b	0.037478726
230	0x3cad654e	0.02116647
231	0x3dcd8ae6	0.100362584
232	0xbd53d5cf	-0.051717576
233	0xbe7cb71e	-0.24679229
234	0x3dd6ebd0	0.104941964
235	0xbe3269ff	-0.17423247
236	0x3e94f1f2	0.2909084
237	0xbd5c818d	-0.053834487
238	0xbd2d37b9	-0.04228947
239	0x3d94da13	0.07268157
240	0xbdfcb31b	-0.12338849
241	0xbbab79dd	-0.005233033
242	0xbc9e74fb	-0.01934289
243	0xbe504763	-0.20339732
244	0x3d88b7cc	0.066756815
245	0xbd17ed5d	-0.0370916
246	0x3da89d9f	0.08233189
247	0xbb2f5f76	-0.002675978
248	0xbe35f31d	-0.17768522
249	0xbe0f7ec6	-0.14013204
250	0x3d43efa1	0.04783595
251	0x3c103f40	0.0088041425
252	0x3d8d6f79	0.06906027
253	0x3c979990	0.018505841
254	0xbd8e9946	-0.06962828
255	0x3cdd3d8a	0.027006883

fc2.bias f4 [10]
0	0xbea73564	-0.3265792
1	0xbddc84f3	-0.107675456
2	0xbe5dfb7d	-0.21677966
3	0x3e2fdd09	0.17174162
4	0x3eded0d3	0.43518695
5	0xbdb07088	-0.08615214
6	0x3d846c5f	0.06465983
7	0xbd6722e4	-0.05642976
8	0x3e007cc9	0.12547602
9	0x3d8f8188	0.07007128
